…
|---------------------------------------------------------------------------|
| Oversize allocations  |       0    |       0    |       0    |       0    |
|---------------------------------------------------------------------------|
| Oversize GPU segments |       0    |       0    |       0    |       0    |
|===========================================================================|

----------------------------------------------------------------
        Layer (type)               Output Shape         Param #
================================================================
         Rearrange-1            [10, 128, 4096]               0
            Linear-2            [10, 128, 2048]       8,390,656
           Dropout-3            [10, 129, 2048]               0
         LayerNorm-4            [10, 129, 2048]           4,096
            Linear-5            [10, 129, 9216]      18,874,368
           Softmax-6         [10, 48, 129, 129]               0
            Linear-7            [10, 129, 2048]       6,293,504
           Dropout-8            [10, 129, 2048]               0
         Attention-9            [10, 129, 2048]               0
          PreNorm-10            [10, 129, 2048]               0
        LayerNorm-11            [10, 129, 2048]           4,096
           Linear-12            [10, 129, 4096]       8,392,704
             GELU-13            [10, 129, 4096]               0
          Dropout-14            [10, 129, 4096]               0
           Linear-15            [10, 129, 2048]       8,390,656
          Dropout-16            [10, 129, 2048]               0
      FeedForward-17            [10, 129, 2048]               0
          PreNorm-18            [10, 129, 2048]               0
        LayerNorm-19            [10, 129, 2048]           4,096
           Linear-20            [10, 129, 9216]      18,874,368
          Softmax-21         [10, 48, 129, 129]               0
           Linear-22            [10, 129, 2048]       6,293,504
          Dropout-23            [10, 129, 2048]               0
        Attention-24            [10, 129, 2048]               0
          PreNorm-25            [10, 129, 2048]               0
        LayerNorm-26            [10, 129, 2048]           4,096
           Linear-27            [10, 129, 4096]       8,392,704
             GELU-28            [10, 129, 4096]               0
          Dropout-29            [10, 129, 4096]               0
           Linear-30            [10, 129, 2048]       8,390,656
          Dropout-31            [10, 129, 2048]               0
      FeedForward-32            [10, 129, 2048]               0
          PreNorm-33            [10, 129, 2048]               0
        LayerNorm-34            [10, 129, 2048]           4,096
           Linear-35            [10, 129, 9216]      18,874,368
          Softmax-36         [10, 48, 129, 129]               0
           Linear-37            [10, 129, 2048]       6,293,504
          Dropout-38            [10, 129, 2048]               0
        Attention-39            [10, 129, 2048]               0
          PreNorm-40            [10, 129, 2048]               0
        LayerNorm-41            [10, 129, 2048]           4,096
           Linear-42            [10, 129, 4096]       8,392,704
             GELU-43            [10, 129, 4096]               0
          Dropout-44            [10, 129, 4096]               0
           Linear-45            [10, 129, 2048]       8,390,656
          Dropout-46            [10, 129, 2048]               0
      FeedForward-47            [10, 129, 2048]               0
          PreNorm-48            [10, 129, 2048]               0
        LayerNorm-49            [10, 129, 2048]           4,096
           Linear-50            [10, 129, 9216]      18,874,368
          Softmax-51         [10, 48, 129, 129]               0
           Linear-52            [10, 129, 2048]       6,293,504
          Dropout-53            [10, 129, 2048]               0
        Attention-54            [10, 129, 2048]               0
          PreNorm-55            [10, 129, 2048]               0
        LayerNorm-56            [10, 129, 2048]           4,096
           Linear-57            [10, 129, 4096]       8,392,704
             GELU-58            [10, 129, 4096]               0
          Dropout-59            [10, 129, 4096]               0
           Linear-60            [10, 129, 2048]       8,390,656
          Dropout-61            [10, 129, 2048]               0
      FeedForward-62            [10, 129, 2048]               0
          PreNorm-63            [10, 129, 2048]               0
        LayerNorm-64            [10, 129, 2048]           4,096
           Linear-65            [10, 129, 9216]      18,874,368
          Softmax-66         [10, 48, 129, 129]               0
           Linear-67            [10, 129, 2048]       6,293,504
          Dropout-68            [10, 129, 2048]               0
        Attention-69            [10, 129, 2048]               0
          PreNorm-70            [10, 129, 2048]               0
        LayerNorm-71            [10, 129, 2048]           4,096
           Linear-72            [10, 129, 4096]       8,392,704
             GELU-73            [10, 129, 4096]               0
          Dropout-74            [10, 129, 4096]               0
           Linear-75            [10, 129, 2048]       8,390,656
          Dropout-76            [10, 129, 2048]               0
      FeedForward-77            [10, 129, 2048]               0
          PreNorm-78            [10, 129, 2048]               0
        LayerNorm-79            [10, 129, 2048]           4,096
           Linear-80            [10, 129, 9216]      18,874,368
          Softmax-81         [10, 48, 129, 129]               0
           Linear-82            [10, 129, 2048]       6,293,504
          Dropout-83            [10, 129, 2048]               0
        Attention-84            [10, 129, 2048]               0
          PreNorm-85            [10, 129, 2048]               0
        LayerNorm-86            [10, 129, 2048]           4,096
           Linear-87            [10, 129, 4096]       8,392,704
             GELU-88            [10, 129, 4096]               0
          Dropout-89            [10, 129, 4096]               0
           Linear-90            [10, 129, 2048]       8,390,656
          Dropout-91            [10, 129, 2048]               0
      FeedForward-92            [10, 129, 2048]               0
          PreNorm-93            [10, 129, 2048]               0
        LayerNorm-94            [10, 129, 2048]           4,096
           Linear-95            [10, 129, 9216]      18,874,368
          Softmax-96         [10, 48, 129, 129]               0
           Linear-97            [10, 129, 2048]       6,293,504
          Dropout-98            [10, 129, 2048]               0
        Attention-99            [10, 129, 2048]               0
         PreNorm-100            [10, 129, 2048]               0
       LayerNorm-101            [10, 129, 2048]           4,096
          Linear-102            [10, 129, 4096]       8,392,704
            GELU-103            [10, 129, 4096]               0
         Dropout-104            [10, 129, 4096]               0
          Linear-105            [10, 129, 2048]       8,390,656
         Dropout-106            [10, 129, 2048]               0
     FeedForward-107            [10, 129, 2048]               0
         PreNorm-108            [10, 129, 2048]               0
       LayerNorm-109            [10, 129, 2048]           4,096
          Linear-110            [10, 129, 9216]      18,874,368
         Softmax-111         [10, 48, 129, 129]               0
          Linear-112            [10, 129, 2048]       6,293,504
         Dropout-113            [10, 129, 2048]               0
       Attention-114            [10, 129, 2048]               0
         PreNorm-115            [10, 129, 2048]               0
       LayerNorm-116            [10, 129, 2048]           4,096
          Linear-117            [10, 129, 4096]       8,392,704
            GELU-118            [10, 129, 4096]               0
         Dropout-119            [10, 129, 4096]               0
          Linear-120            [10, 129, 2048]       8,390,656
         Dropout-121            [10, 129, 2048]               0
     FeedForward-122            [10, 129, 2048]               0
         PreNorm-123            [10, 129, 2048]               0
       LayerNorm-124            [10, 129, 2048]           4,096
          Linear-125            [10, 129, 9216]      18,874,368
         Softmax-126         [10, 48, 129, 129]               0
          Linear-127            [10, 129, 2048]       6,293,504
         Dropout-128            [10, 129, 2048]               0
       Attention-129            [10, 129, 2048]               0
         PreNorm-130            [10, 129, 2048]               0
       LayerNorm-131            [10, 129, 2048]           4,096
          Linear-132            [10, 129, 4096]       8,392,704
            GELU-133            [10, 129, 4096]               0
         Dropout-134            [10, 129, 4096]               0
          Linear-135            [10, 129, 2048]       8,390,656
         Dropout-136            [10, 129, 2048]               0
     FeedForward-137            [10, 129, 2048]               0
         PreNorm-138            [10, 129, 2048]               0
       LayerNorm-139            [10, 129, 2048]           4,096
          Linear-140            [10, 129, 9216]      18,874,368
         Softmax-141         [10, 48, 129, 129]               0
          Linear-142            [10, 129, 2048]       6,293,504
         Dropout-143            [10, 129, 2048]               0
       Attention-144            [10, 129, 2048]               0
         PreNorm-145            [10, 129, 2048]               0
       LayerNorm-146            [10, 129, 2048]           4,096
          Linear-147            [10, 129, 4096]       8,392,704
            GELU-148            [10, 129, 4096]               0
         Dropout-149            [10, 129, 4096]               0
          Linear-150            [10, 129, 2048]       8,390,656
         Dropout-151            [10, 129, 2048]               0
     FeedForward-152            [10, 129, 2048]               0
         PreNorm-153            [10, 129, 2048]               0
       LayerNorm-154            [10, 129, 2048]           4,096
          Linear-155            [10, 129, 9216]      18,874,368
         Softmax-156         [10, 48, 129, 129]               0
          Linear-157            [10, 129, 2048]       6,293,504
         Dropout-158            [10, 129, 2048]               0
       Attention-159            [10, 129, 2048]               0
         PreNorm-160            [10, 129, 2048]               0
       LayerNorm-161            [10, 129, 2048]           4,096
          Linear-162            [10, 129, 4096]       8,392,704
            GELU-163            [10, 129, 4096]               0
         Dropout-164            [10, 129, 4096]               0
          Linear-165            [10, 129, 2048]       8,390,656
         Dropout-166            [10, 129, 2048]               0
     FeedForward-167            [10, 129, 2048]               0
         PreNorm-168            [10, 129, 2048]               0
       LayerNorm-169            [10, 129, 2048]           4,096
          Linear-170            [10, 129, 9216]      18,874,368
         Softmax-171         [10, 48, 129, 129]               0
          Linear-172            [10, 129, 2048]       6,293,504
         Dropout-173            [10, 129, 2048]               0
       Attention-174            [10, 129, 2048]               0
         PreNorm-175            [10, 129, 2048]               0
       LayerNorm-176            [10, 129, 2048]           4,096
          Linear-177            [10, 129, 4096]       8,392,704
            GELU-178            [10, 129, 4096]               0
         Dropout-179            [10, 129, 4096]               0
          Linear-180            [10, 129, 2048]       8,390,656
         Dropout-181            [10, 129, 2048]               0
     FeedForward-182            [10, 129, 2048]               0
         PreNorm-183            [10, 129, 2048]               0
       LayerNorm-184            [10, 129, 2048]           4,096
          Linear-185            [10, 129, 9216]      18,874,368
         Softmax-186         [10, 48, 129, 129]               0
          Linear-187            [10, 129, 2048]       6,293,504
         Dropout-188            [10, 129, 2048]               0
       Attention-189            [10, 129, 2048]               0
         PreNorm-190            [10, 129, 2048]               0
       LayerNorm-191            [10, 129, 2048]           4,096
          Linear-192            [10, 129, 4096]       8,392,704
            GELU-193            [10, 129, 4096]               0
         Dropout-194            [10, 129, 4096]               0
          Linear-195            [10, 129, 2048]       8,390,656
         Dropout-196            [10, 129, 2048]               0
     FeedForward-197            [10, 129, 2048]               0
         PreNorm-198            [10, 129, 2048]               0
       LayerNorm-199            [10, 129, 2048]           4,096
          Linear-200            [10, 129, 9216]      18,874,368
         Softmax-201         [10, 48, 129, 129]               0
          Linear-202            [10, 129, 2048]       6,293,504
         Dropout-203            [10, 129, 2048]               0
       Attention-204            [10, 129, 2048]               0
         PreNorm-205            [10, 129, 2048]               0
       LayerNorm-206            [10, 129, 2048]           4,096
          Linear-207            [10, 129, 4096]       8,392,704
            GELU-208            [10, 129, 4096]               0
         Dropout-209            [10, 129, 4096]               0
          Linear-210            [10, 129, 2048]       8,390,656
         Dropout-211            [10, 129, 2048]               0
     FeedForward-212            [10, 129, 2048]               0
         PreNorm-213            [10, 129, 2048]               0
       LayerNorm-214            [10, 129, 2048]           4,096
          Linear-215            [10, 129, 9216]      18,874,368
         Softmax-216         [10, 48, 129, 129]               0
          Linear-217            [10, 129, 2048]       6,293,504
         Dropout-218            [10, 129, 2048]               0
       Attention-219            [10, 129, 2048]               0
         PreNorm-220            [10, 129, 2048]               0
       LayerNorm-221            [10, 129, 2048]           4,096
          Linear-222            [10, 129, 4096]       8,392,704
            GELU-223            [10, 129, 4096]               0
         Dropout-224            [10, 129, 4096]               0
          Linear-225            [10, 129, 2048]       8,390,656
         Dropout-226            [10, 129, 2048]               0
     FeedForward-227            [10, 129, 2048]               0
         PreNorm-228            [10, 129, 2048]               0
       LayerNorm-229            [10, 129, 2048]           4,096
          Linear-230            [10, 129, 9216]      18,874,368
         Softmax-231         [10, 48, 129, 129]               0
          Linear-232            [10, 129, 2048]       6,293,504
         Dropout-233            [10, 129, 2048]               0
       Attention-234            [10, 129, 2048]               0
         PreNorm-235            [10, 129, 2048]               0
       LayerNorm-236            [10, 129, 2048]           4,096
          Linear-237            [10, 129, 4096]       8,392,704
            GELU-238            [10, 129, 4096]               0
         Dropout-239            [10, 129, 4096]               0
          Linear-240            [10, 129, 2048]       8,390,656
         Dropout-241            [10, 129, 2048]               0
     FeedForward-242            [10, 129, 2048]               0
         PreNorm-243            [10, 129, 2048]               0
       LayerNorm-244            [10, 129, 2048]           4,096
          Linear-245            [10, 129, 9216]      18,874,368
         Softmax-246         [10, 48, 129, 129]               0
          Linear-247            [10, 129, 2048]       6,293,504
         Dropout-248            [10, 129, 2048]               0
       Attention-249            [10, 129, 2048]               0
         PreNorm-250            [10, 129, 2048]               0
       LayerNorm-251            [10, 129, 2048]           4,096
          Linear-252            [10, 129, 4096]       8,392,704
            GELU-253            [10, 129, 4096]               0
         Dropout-254            [10, 129, 4096]               0
          Linear-255            [10, 129, 2048]       8,390,656
         Dropout-256            [10, 129, 2048]               0
     FeedForward-257            [10, 129, 2048]               0
         PreNorm-258            [10, 129, 2048]               0
       LayerNorm-259            [10, 129, 2048]           4,096
          Linear-260            [10, 129, 9216]      18,874,368
         Softmax-261         [10, 48, 129, 129]               0
          Linear-262            [10, 129, 2048]       6,293,504
         Dropout-263            [10, 129, 2048]               0
       Attention-264            [10, 129, 2048]               0
         PreNorm-265            [10, 129, 2048]               0
       LayerNorm-266            [10, 129, 2048]           4,096
          Linear-267            [10, 129, 4096]       8,392,704
            GELU-268            [10, 129, 4096]               0
         Dropout-269            [10, 129, 4096]               0
          Linear-270            [10, 129, 2048]       8,390,656
         Dropout-271            [10, 129, 2048]               0
     FeedForward-272            [10, 129, 2048]               0
         PreNorm-273            [10, 129, 2048]               0
       LayerNorm-274            [10, 129, 2048]           4,096
          Linear-275            [10, 129, 9216]      18,874,368
         Softmax-276         [10, 48, 129, 129]               0
          Linear-277            [10, 129, 2048]       6,293,504
         Dropout-278            [10, 129, 2048]               0
       Attention-279            [10, 129, 2048]               0
         PreNorm-280            [10, 129, 2048]               0
       LayerNorm-281            [10, 129, 2048]           4,096
          Linear-282            [10, 129, 4096]       8,392,704
            GELU-283            [10, 129, 4096]               0
         Dropout-284            [10, 129, 4096]               0
          Linear-285            [10, 129, 2048]       8,390,656
         Dropout-286            [10, 129, 2048]               0
     FeedForward-287            [10, 129, 2048]               0
         PreNorm-288            [10, 129, 2048]               0
       LayerNorm-289            [10, 129, 2048]           4,096
          Linear-290            [10, 129, 9216]      18,874,368
         Softmax-291         [10, 48, 129, 129]               0
          Linear-292            [10, 129, 2048]       6,293,504
         Dropout-293            [10, 129, 2048]               0
       Attention-294            [10, 129, 2048]               0
         PreNorm-295            [10, 129, 2048]               0
       LayerNorm-296            [10, 129, 2048]           4,096
          Linear-297            [10, 129, 4096]       8,392,704
            GELU-298            [10, 129, 4096]               0
         Dropout-299            [10, 129, 4096]               0
          Linear-300            [10, 129, 2048]       8,390,656
         Dropout-301            [10, 129, 2048]               0
     FeedForward-302            [10, 129, 2048]               0
         PreNorm-303            [10, 129, 2048]               0
       LayerNorm-304            [10, 129, 2048]           4,096
          Linear-305            [10, 129, 9216]      18,874,368
         Softmax-306         [10, 48, 129, 129]               0
          Linear-307            [10, 129, 2048]       6,293,504
         Dropout-308            [10, 129, 2048]               0
       Attention-309            [10, 129, 2048]               0
         PreNorm-310            [10, 129, 2048]               0
       LayerNorm-311            [10, 129, 2048]           4,096
          Linear-312            [10, 129, 4096]       8,392,704
            GELU-313            [10, 129, 4096]               0
         Dropout-314            [10, 129, 4096]               0
          Linear-315            [10, 129, 2048]       8,390,656
         Dropout-316            [10, 129, 2048]               0
     FeedForward-317            [10, 129, 2048]               0
         PreNorm-318            [10, 129, 2048]               0
       LayerNorm-319            [10, 129, 2048]           4,096
          Linear-320            [10, 129, 9216]      18,874,368
         Softmax-321         [10, 48, 129, 129]               0
          Linear-322            [10, 129, 2048]       6,293,504
         Dropout-323            [10, 129, 2048]               0
       Attention-324            [10, 129, 2048]               0
         PreNorm-325            [10, 129, 2048]               0
       LayerNorm-326            [10, 129, 2048]           4,096
          Linear-327            [10, 129, 4096]       8,392,704
            GELU-328            [10, 129, 4096]               0
         Dropout-329            [10, 129, 4096]               0
          Linear-330            [10, 129, 2048]       8,390,656
         Dropout-331            [10, 129, 2048]               0
     FeedForward-332            [10, 129, 2048]               0
         PreNorm-333            [10, 129, 2048]               0
       LayerNorm-334            [10, 129, 2048]           4,096
          Linear-335            [10, 129, 9216]      18,874,368
         Softmax-336         [10, 48, 129, 129]               0
          Linear-337            [10, 129, 2048]       6,293,504
         Dropout-338            [10, 129, 2048]               0
       Attention-339            [10, 129, 2048]               0
         PreNorm-340            [10, 129, 2048]               0
       LayerNorm-341            [10, 129, 2048]           4,096
          Linear-342            [10, 129, 4096]       8,392,704
            GELU-343            [10, 129, 4096]               0
         Dropout-344            [10, 129, 4096]               0
          Linear-345            [10, 129, 2048]       8,390,656
         Dropout-346            [10, 129, 2048]               0
     FeedForward-347            [10, 129, 2048]               0
         PreNorm-348            [10, 129, 2048]               0
       LayerNorm-349            [10, 129, 2048]           4,096
          Linear-350            [10, 129, 9216]      18,874,368
         Softmax-351         [10, 48, 129, 129]               0
          Linear-352            [10, 129, 2048]       6,293,504
         Dropout-353            [10, 129, 2048]               0
       Attention-354            [10, 129, 2048]               0
         PreNorm-355            [10, 129, 2048]               0
       LayerNorm-356            [10, 129, 2048]           4,096
          Linear-357            [10, 129, 4096]       8,392,704
            GELU-358            [10, 129, 4096]               0
         Dropout-359            [10, 129, 4096]               0
          Linear-360            [10, 129, 2048]       8,390,656
         Dropout-361            [10, 129, 2048]               0
     FeedForward-362            [10, 129, 2048]               0
         PreNorm-363            [10, 129, 2048]               0
     Transformer-364            [10, 129, 2048]               0
          Linear-365                    [10, 1]           2,049
          Linear-366            [10, 128, 4096]       8,392,704
       Rearrange-367      [10, 1, 128, 128, 32]               0
================================================================
Total params: 1,023,811,585
Trainable params: 1,023,811,585
Non-trainable params: 0
----------------------------------------------------------------
Input size (MB): 20.00
Forward/backward pass size (MB): 11559.78
Params size (MB): 3905.53
Estimated Total Size (MB): 15485.31
----------------------------------------------------------------
…
